Tensorboard logging on
79
lsl
(37389, 79)
model created
SentenceJMVAE(
  (embedding): Embedding(1684, 300)
  (word_dropout): Dropout(p=0.5)
  (encoder_rnn): GRU(379, 256, batch_first=True)
  (encoder_rnn_w): GRU(300, 256, batch_first=True)
  (relu): LeakyReLU(negative_slope=0.01)
  (sigmoid): Sigmoid()
  (encoder_linear_y1): Linear(in_features=79, out_features=256, bias=True)
  (encoder_linear_y2): Linear(in_features=256, out_features=256, bias=True)
  (decoder_rnn): GRU(300, 256, batch_first=True)
  (hidden2mean): Linear(in_features=256, out_features=16, bias=True)
  (hidden2logv): Linear(in_features=256, out_features=16, bias=True)
  (hidden2mean_w): Linear(in_features=256, out_features=16, bias=True)
  (hidden2logv_w): Linear(in_features=256, out_features=16, bias=True)
  (hidden2mean_y): Linear(in_features=256, out_features=16, bias=True)
  (hidden2logv_y): Linear(in_features=256, out_features=16, bias=True)
  (latent2hidden): Linear(in_features=16, out_features=256, bias=True)
  (outputs2vocab): Linear(in_features=256, out_features=1684, bias=True)
  (latent2hidden_y): Linear(in_features=16, out_features=256, bias=True)
  (decoder_linear_y): Linear(in_features=256, out_features=79, bias=True)
)
starting training
split:  train 	epoch:  0
Out dataloader received
Tensorboard logging on
79
lsl
(37389, 79)
model created
SentenceJMVAE(
  (embedding): Embedding(1684, 300)
  (word_dropout): Dropout(p=0.5)
  (encoder_rnn): GRU(379, 256, batch_first=True)
  (encoder_rnn_w): GRU(300, 256, batch_first=True)
  (relu): LeakyReLU(negative_slope=0.01)
  (sigmoid): Sigmoid()
  (encoder_linear_y1): Linear(in_features=79, out_features=256, bias=True)
  (encoder_linear_y2): Linear(in_features=256, out_features=256, bias=True)
  (decoder_rnn): GRU(300, 256, batch_first=True)
  (hidden2mean): Linear(in_features=256, out_features=16, bias=True)
  (hidden2logv): Linear(in_features=256, out_features=16, bias=True)
  (hidden2mean_w): Linear(in_features=256, out_features=16, bias=True)
  (hidden2logv_w): Linear(in_features=256, out_features=16, bias=True)
  (hidden2mean_y): Linear(in_features=256, out_features=16, bias=True)
  (hidden2logv_y): Linear(in_features=256, out_features=16, bias=True)
  (latent2hidden): Linear(in_features=16, out_features=256, bias=True)
  (outputs2vocab): Linear(in_features=256, out_features=1684, bias=True)
  (latent2hidden_y): Linear(in_features=16, out_features=256, bias=True)
  (decoder_linear_y): Linear(in_features=256, out_features=79, bias=True)
)
starting training
split:  train 	epoch:  0
TRAIN Batch 0000/292, Loss  222.9460, NLL-Loss  167.2931, BCE-Loss   55.6520, KL-Loss-joint    0.4598, KL-Loss-w    0.7124, KL-Loss-y    0.4997, KL-Weight  0.002
TRAIN Batch 0050/292, Loss   84.1093, NLL-Loss   71.3703, BCE-Loss   12.5429, KL-Loss-joint   89.8412, KL-Loss-w   23.8321, KL-Loss-y   23.2162, KL-Weight  0.002
…
